…
get_base_feature.py  main.py  model.py  open_roc.ipynb  [0m[01;34mpre_trained_model[0m  [01;34m__pycache__[0m  screenlog.0  test.py  [01;34mutil[0m  visual.ipynb
root@autodl-container-239141bd4a-98b9b00f:~/autodl-tmp/DCWF/DCWF# python main.py 
/root/autodl-tmp/DCWF/DCWF/model.py:313: UserWarning: nn.init.xavier_uniform is now deprecated in favor of nn.init.xavier_uniform_.
  nn.init.xavier_uniform(m.weight)
----------------------------------------------------------------
        Layer (type)               Output Shape         Param #
================================================================
            Conv1d-1             [-1, 32, 5000]             992
       BatchNorm1d-2             [-1, 32, 5000]              64
               ELU-3             [-1, 32, 5000]               0
         MaxPool1d-4             [-1, 32, 1250]               0
            Linear-5                   [-1, 16]             512
              ReLU-6                   [-1, 16]               0
            Linear-7                   [-1, 32]             512
           Sigmoid-8                   [-1, 32]               0
SqueezeAndExcitation-9             [-1, 32, 1250]               0
           Conv1d-10             [-1, 32, 1250]           1,024
      BatchNorm1d-11             [-1, 32, 1250]              64
           Conv1d-12             [-1, 32, 1250]             992
      BatchNorm1d-13             [-1, 32, 1250]              64
           Conv1d-14             [-1, 64, 1250]           2,048
      BatchNorm1d-15             [-1, 64, 1250]             128
           Conv1d-16             [-1, 64, 1250]           2,048
      BatchNorm1d-17             [-1, 64, 1250]             128
       Bottleneck-18             [-1, 64, 1250]               0
        MaxPool1d-19              [-1, 64, 313]               0
          Dropout-20              [-1, 64, 313]               0
           Conv1d-21              [-1, 64, 313]           4,096
      BatchNorm1d-22              [-1, 64, 313]             128
           Conv1d-23              [-1, 64, 313]           1,984
      BatchNorm1d-24              [-1, 64, 313]             128
           Conv1d-25             [-1, 128, 313]           8,192
      BatchNorm1d-26             [-1, 128, 313]             256
           Conv1d-27             [-1, 128, 313]           8,192
      BatchNorm1d-28             [-1, 128, 313]             256
       Bottleneck-29             [-1, 128, 313]               0
        MaxPool1d-30              [-1, 128, 78]               0
          Dropout-31              [-1, 128, 78]               0
           Conv1d-32              [-1, 128, 78]          16,384
      BatchNorm1d-33              [-1, 128, 78]             256
           Conv1d-34              [-1, 128, 78]           3,968
      BatchNorm1d-35              [-1, 128, 78]             256
           Conv1d-36              [-1, 256, 78]          32,768
      BatchNorm1d-37              [-1, 256, 78]             512
           Conv1d-38              [-1, 256, 78]          32,768
      BatchNorm1d-39              [-1, 256, 78]             512
       Bottleneck-40              [-1, 256, 78]               0
        MaxPool1d-41              [-1, 256, 20]               0
          Dropout-42              [-1, 256, 20]               0
           Conv1d-43              [-1, 256, 20]          65,536
      BatchNorm1d-44              [-1, 256, 20]             512
           Conv1d-45              [-1, 256, 20]           7,936
      BatchNorm1d-46              [-1, 256, 20]             512
           Conv1d-47              [-1, 512, 20]         131,072
      BatchNorm1d-48              [-1, 512, 20]           1,024
           Conv1d-49              [-1, 512, 20]         131,072
      BatchNorm1d-50              [-1, 512, 20]           1,024
       Bottleneck-51              [-1, 512, 20]               0
        MaxPool1d-52               [-1, 512, 5]               0
          Flatten-53                 [-1, 2560]               0
================================================================
Total params: 457,920
Trainable params: 457,920
Non-trainable params: 0
----------------------------------------------------------------
Input size (MB): 0.02
Forward/backward pass size (MB): 12.87
Params size (MB): 1.75
Estimated Total Size (MB): 14.64
----------------------------------------------------------------
dataset tor_time_test3d_200w_100tr
…
